model/model.pth (torch, 399869 bytes, 6 tensors)

lstm.weight_ih_l0 f4 [512, 63]
0	0xbd55caa3	-0.052195203
1	0xbda1304b	-0.07870539
2	0xbd4b6383	-0.04965545
3	0x3d71220a	0.058870353
4	0x3daf359a	0.085551456
5	0xbdd8899b	-0.10573121
6	0x3b6a9dd8	0.0035799649
7	0xbd8e8bbf	-0.06960248
8	0x3cb72389	0.022355812
9	0xbd65db9e	-0.056117646
10	0xba0f0c22	-0.0005456825
11	0x3d6bb187	0.05754235
12	0xbcdaec6f	-0.026724068
13	0xbccec4db	-0.025240352
14	0xbc1ea889	-0.009683737
15	0x3dd15370	0.102209926
16	0x3d9910f9	0.074739404
17	0xbb9acef9	-0.00472438
18	0xbd80028b	-0.06250485
19	0x3cc23042	0.023704652
20	0xbcb500cb	-0.022095105
21	0x3d335b10	0.043788016
22	0x3d30fa6d	0.043207575
23	0xbd1dfa7e	-0.038568966
24	0x3ca5c1c1	0.02023399
25	0x3cabe1f7	0.020981772
26	0x3d25d954	0.040490463
27	0x3d4b7787	0.049674537
28	0x3c8242c4	0.015900977
29	0x3c84d427	0.016214443
30	0xbd369223	-0.04457296
31	0xbca77a2a	-0.020443995
32	0x3ca5f7cf	0.020259766
33	0x3c947c83	0.018125778
34	0x3ced5b12	0.02897409
35	0xbb0e6c0c	-0.0021731881
36	0x3d971bea	0.07378371
37	0xbd03124f	-0.031999882
38	0x3cc84e00	0.024451256
39	0x3ca4afa2	0.02010328
40	0x3d85f111	0.065401204
41	0x3b8fb527	0.0043856087
42	0xbcd83d9f	-0.02639657
43	0x3d7379c5	0.0594423
44	0x3ce8f320	0.028436244
45	0x3d997357	0.074927025
46	0xbd11d99c	-0.03560792
47	0xbcfa039a	-0.030519295
48	0x3c429836	0.01187711
49	0xbc9f8424	-0.01947219
50	0x3c9cde64	0.019149013
51	0x3d90fca9	0.07079441
52	0xbd312535	-0.043248374
53	0xbd0c3d35	-0.03423806
54	0x3c67e391	0.014153377
55	0xbbffacd0	-0.0078025833
56	0x3d45491a	0.04816542
57	0x3d1af01c	0.037826642
58	0x3d92e673	0.07172861
59	0xbcd93322	-0.02651364
60	0x3db8ddc7	0.09026676
61	0xbc1b2df5	-0.009471406
62	0x3cf01b83	0.029309994
63	0xbd60bea3	-0.054869305
64	0x3da01e37	0.07818263
65	0x3d1eb606	0.03874781
66	0xbd18cec9	-0.03730658
67	0x3cb226be	0.02174699
68	0xbd446bad	-0.04795425
69	0xbd2ceaf1	-0.042216245
70	0xbd933f4a	-0.07189806
71	0x3db4c6e3	0.08826997
72	0xbd0e2f88	-0.034713298
73	0xbdbb26a9	-0.09138233
74	0x3ca013c5	0.019540677
75	0xbd17f02d	-0.037094284
76	0x3b211738	0.002458049
77	0x3d98ba5e	0.07457422
78	0x3d26e3d0	0.040744603
79	0x3d148109	0.03625587
80	0x3c415ae5	0.011801456
81	0xbca572b2	-0.020196293
82	0xbcea36e1	-0.028590621
83	0xbd6b4876	-0.05744215
84	0x3d8a7436	0.06760447
85	0xbd08972e	-0.0333473
86	0xbd767398	-0.060168833
87	0x3c8f279d	0.017474944
88	0xbc34af88	-0.011028178
89	0x3acfb9e2	0.0015848244
90	0xbd0e4f6e	-0.03474372
91	0xbcd5d22a	-0.02610119
92	0x3a52eda7	0.0008046277
93	0xbdb0b052	-0.086273804
94	0x3cebd863	0.028789705
95	0x3ca1c12f	0.019745437
96	0xbdbc613e	-0.09198235
97	0x3d67193a	0.056420542
98	0x3cbdf026	0.0231858
99	0xbcb1a689	-0.021685855
100	0x3d338e63	0.043836962
101	0xbd4671cf	-0.04844838
102	0xbd90585a	-0.07048102
103	0x3da66051	0.0812384
104	0xbc643664	-0.013928983
105	0xbb3c3898	-0.0028720256
106	0x3d92d0bd	0.0716872
107	0xbcdc4ae8	-0.026891187
108	0x3d5e2a0b	0.054239314
109	0x3da04ec0	0.0782752
110	0x3b9d7c6f	0.0048060934
111	0xbd106d85	-0.035260696
112	0xbd3c3e90	-0.0459581
113	0x3d812751	0.06306327
114	0x3d3373e3	0.04381169
115	0x3c834f94	0.016029157
116	0xbd5fd593	-0.05464704
117	0xbdb11640	-0.08646822
118	0x3d4aaf3f	0.049483534
119	0x3c559618	0.013036273
120	0xbcf0cf4f	-0.029395727
121	0xbda77239	-0.08176083
122	0xbdb4703b	-0.08810469
123	0x3b3d2081	0.0028858485
124	0x3ccf14d3	0.025278484
125	0x3d7f9f19	0.062407587
126	0xbd5bfd52	-0.053708382
127	0xbd9b7c5b	-0.07592078
128	0x3d2e48bc	0.042549834
129	0x3d73b1f8	0.059495896
130	0xbcab01e2	-0.020874921
131	0xbd5827f2	-0.05277247
132	0xbd89f6bc	-0.06736514
133	0xbd523532	-0.051320262
134	0x3cf5739b	0.029962352
135	0x3ba9bfcd	0.005180335
136	0xbd9e17f2	-0.07719411
137	0xbd4913b7	-0.049091067
138	0x3c43d3bd	0.011952338
139	0xbd3da85c	-0.046303138
140	0x3c9464e0	0.018114507
141	0x3da41143	0.08011105
142	0xbc9441ee	-0.018097844
143	0x3d93d7e4	0.07218912
144	0x3d0cb15b	0.034348827
145	0xbd06048a	-0.032719173
146	0x3d620fb8	0.05519077
147	0x3d87f2e0	0.066381216
148	0x3d929967	0.071581654
149	0xbd24b6f9	-0.04021356
150	0x3c1db293	0.009625095
151	0x3ce4547e	0.02787232
152	0xbdad9bad	-0.084769584
153	0x3d1f1bdd	0.038844932
154	0x3c9e5fb0	0.019332737
155	0x3d1dc60c	0.03851895
156	0x3c1ee66d	0.0096984925
157	0x3cb82a55	0.022481123
158	0x3d9db382	0.07700254
159	0x3da09bf9	0.078422494
160	0x3d8499a7	0.06474619
161	0x3d46972e	0.04848402
162	0x3cc7eaf4	0.024404027
163	0xbda74394	-0.081671864
164	0xbae86146	-0.0017729185
165	0xbcf9be9c	-0.030486397
166	0xbd9b2a34	-0.07576409
167	0xbc81a247	-0.01582445
168	0xbd1ee4df	-0.038792487
169	0xbca746cb	-0.020419499
170	0xbcac5265	-0.021035383
171	0x3d8feed5	0.070279755
172	0xbcb730bd	-0.022362107
173	0xbd6e4e85	-0.05818035
174	0x3d831f9c	0.064025134
175	0x38b30b25	8.537461e-05
176	0x3d5244d2	0.051335163
177	0x3d81a65b	0.06330558
178	0x3d0acc7f	0.03388643
179	0xbb27bcb9	-0.0025594665
180	0xbd22dc40	-0.039760828
181	0x3ce358c5	0.02775229
182	0xbd67c0ad	-0.056580234
183	0xbbd73ba2	-0.006568388
184	0xbbb761f2	-0.005596393
185	0xbcb9567a	-0.022624243
186	0x3c938c51	0.018011244
187	0x3d92e7ea	0.0717314
188	0x3d85814b	0.06518801
189	0x3d29741e	0.041370504
190	0xbd56161c	-0.05226718
191	0xbd521058	-0.051285118
192	0x3d7a44b6	0.061100684
193	0xbdabd12b	-0.08389505
194	0x3ccf6f8c	0.025321744
195	0x3d8faba3	0.07015159
196	0xbcd8e28e	-0.026475217
197	0xbdb19160	-0.08670306
198	0xbd3d1af3	-0.04616828
199	0xbd75fa00	-0.06005287
200	0xb7d86000	-2.579391e-05
201	0x3d397952	0.045281716
202	0xbd37c33a	-0.044863917
203	0x3cb5ede0	0.022208154
204	0x3d44730a	0.047961272
205	0xbc9f5074	-0.019447543
206	0xbd52f904	-0.05150701
207	0xbc2c5c60	-0.010520071
208	0xbd8cd046	-0.068756625
209	0xbd0da29a	-0.034578897
210	0x3da5df63	0.08099248
211	0xbd1d28da	-0.038369037
212	0x3c88e660	0.016711414
213	0x3c08ddd0	0.0083536655
214	0xbda551ee	-0.080722675
215	0xbd8989ae	-0.067157134
216	0xbbb88500	-0.005631089
217	0xbc87c6e4	-0.01657433
218	0x39d99e00	0.00041507185
219	0x3c4c4200	0.0124669075
220	0x3c8fd76c	0.017558776
221	0xbd504c9d	-0.050854314
222	0xbd0a3ebd	-0.03375124
223	0x3cb3f028	0.021965101
224	0x3c0d15d0	0.008611158
225	0x3d3adece	0.04562264
226	0x3dae3a35	0.08507196
227	0x3d0d4466	0.034489058
228	0xbda9f820	-0.08299279
229	0x3d9fbd7b	0.077998124
230	0xbd090c1e	-0.03345882
231	0x3d616a96	0.05503329
232	0xbd930c2d	-0.07180057
233	0xbce41908	-0.027843967
234	0x3d53970a	0.051657714
235	0xbd70fe7e	-0.058836453
236	0x3c6a87d0	0.014314607
237	0x3cbe4628	0.023226812
238	0xbd33e638	-0.043920726
239	0xbd9e9a15	-0.077442326
240	0xbd0a9e38	-0.033842295
241	0xbd3366f9	-0.043799374
242	0x3d1483b0	0.0362584
243	0x3d860bcd	0.065452196
244	0xbd855508	-0.06510359
245	0xbc36c2f8	-0.011154883
246	0xbc8f9ae0	-0.017529905
247	0x3ccdf988	0.0251434
248	0xbd5b2889	-0.053505454
249	0xbdaebe4e	-0.085323915
250	0x3d8ff533	0.0702919
251	0xbd86e7f8	-0.06587213
252	0xbc786158	-0.015159927
253	0x3c9b7ca0	0.018980324
254	0x3d3e2e7f	0.04643106
255	0xbd2ab46c	-0.04167597

lstm.weight_hh_l0 f4 [512, 128]
0	0x3d067e40	0.032835245
1	0x3ca9178c	0.02064111
2	0xbc4e1c35	-0.012579967
3	0xbb97cdd7	-0.0046326923
4	0x3d077f2b	0.03308026
5	0x3d937eb5	0.07201902
6	0x3d6a6356	0.05722364
7	0xbd813968	-0.063097775
8	0xbd6c581a	-0.057701208
9	0x3d95a89d	0.07307551
10	0x3db6581f	0.089035265
11	0x3daf5f79	0.08563132
12	0x3cbc9a85	0.0230229
13	0xbd2923df	-0.041293975
14	0xbdc4e1bd	-0.09613369
15	0xbd14d943	-0.03634001
16	0x3d9daec8	0.076993525
17	0x3daac1eb	0.08337768
18	0xbc5a0478	-0.0133067295
19	0x3d19d721	0.03755868
20	0xbd965fd4	-0.073424965
21	0x3c2834f6	0.010266533
22	0x3d324c51	0.043529812
23	0xbbf0d3c8	-0.007349465
24	0x3c8696db	0.016429355
25	0xba7ea0c7	-0.0009713289
26	0xbc0261fe	-0.0079579335
27	0xbd3b5058	-0.04573092
28	0x3db97265	0.09055022
29	0x3c98cb67	0.018651677
30	0x3c923392	0.017846856
31	0xbd6011ba	-0.054704405
32	0xbd871363	-0.065954946
33	0xbcd33072	-0.025779936
34	0xbd6884aa	-0.056767143
35	0x3d608b3b	0.05482028
36	0x3da87eee	0.08227335
37	0xbd7ff342	-0.062487848
38	0xbd924cc3	-0.071435474
39	0x3c1e1fe2	0.009651156
40	0x3dcc8211	0.09985746
41	0xbc88c2db	-0.016694477
42	0x3c9f8976	0.019474726
43	0xbd4586b8	-0.04822418
44	0x3d924b03	0.071432136
45	0x3d3f7d76	0.04675051
46	0x3ba35259	0.004984182
47	0x3aae7564	0.0013310132
48	0xbcf773b1	-0.030206533
49	0x3d69b4be	0.057057135
50	0xbca709f8	-0.020390496
51	0xbc5e5c59	-0.013571822
52	0xbdd698e5	-0.10478381
53	0x3d907747	0.07054
54	0xbcc55257	-0.024087114
55	0x3b361777	0.0027784982
56	0xbdd60433	-0.1045002
57	0x3d99a784	0.07502654
58	0x3d2ae89c	0.04172574
59	0xbd2248e9	-0.039620314
60	0x3d8aa051	0.06768859
61	0xbbfd4e08	-0.0077302493
62	0xbd7c1646	-0.06154468
63	0x3d8ae627	0.06782179
64	0x3dae44da	0.08509226
65	0x3d95faef	0.073232524
66	0x3db40777	0.08790486
67	0xbd63b0d7	-0.05558857
68	0xbdb30493	-0.08741107
69	0x3d49bccd	0.04925232
70	0xbd136845	-0.03598811
71	0x3ce49b99	0.027906226
72	0x3c0af344	0.008480851
73	0x3cffc068	0.031219676
74	0xbc061ac0	-0.008185089
75	0xbd02eed5	-0.03196605
76	0x3ccd3570	0.025049895
77	0xbaaa7290	-0.0013004113
78	0xbd8213c8	-0.06351429
79	0xbcb19f82	-0.021682505
80	0x3d95d228	0.07315475
81	0x3d21ba17	0.03948411
82	0x3db22cd6	0.08699958
83	0xbdafbac5	-0.08580545
84	0x3db425ef	0.08796298
85	0xbccdde7c	-0.025130503
86	0x3ce9ed05	0.028555403
87	0x3bd19cbd	0.0063968585
88	0x3d8c683a	0.06855817
89	0xbd74b4c4	-0.059742704
90	0xbcf280ac	-0.029602371
91	0x3ba8af0f	0.0051478217
92	0xbd1ed036	-0.038772784
93	0x3cbe5740	0.023234963
94	0xbd678127	-0.056519654
95	0x3d87d3a9	0.06632168
96	0xbc896d41	-0.01677573
97	0xbd251418	-0.040302366
98	0xbbbcc87f	-0.0057612057
99	0xbd03b534	-0.03215523
100	0x3d751959	0.059838627
101	0xb91e807d	-0.0001511592
102	0xbd24b927	-0.040215638
103	0x3d76479c	0.060126886
104	0x3bf9c9c0	0.0076229274
105	0x3cae06ed	0.021243537
106	0xbd30b065	-0.043136973
107	0x3c334be6	0.010943389
108	0x3cb3e6ec	0.021960698
109	0xbd07fb03	-0.033198368
110	0xbcaaa423	-0.02083022
111	0x3da0b9c9	0.07847936
112	0xbd2180db	-0.039429527
113	0x3db4cb31	0.08827818
114	0xbcd544dd	-0.026033813
115	0xbceb3e95	-0.028716365
116	0x3b061dc7	0.0020464526
117	0xbd9f5ee9	-0.077817746
118	0x3d5a075a	0.053229667
119	0x3d2deeeb	0.042464178
120	0xbceb1cbd	-0.028700227
121	0xbd06a2eb	-0.032870214
122	0xbcfef044	-0.031120427
123	0x3ce29874	0.027660586
124	0x3d2cc745	0.042182226
125	0xbd98a824	-0.07453945
126	0x3d25a2d5	0.04043849
127	0x3d973781	0.073836334
128	0xbb8acfc2	-0.0042361924
129	0xbd83790d	-0.06419573
130	0x3d1a20b8	0.03762886
131	0xbd2e9cf2	-0.042630143
132	0x3bfd01ef	0.007721178
133	0xbd9c1698	-0.07621497
134	0xbc6cd324	-0.014454637
135	0xbc5ff11b	-0.013668324
136	0xbd2c3ee1	-0.042052153
137	0x3c8e9145	0.017403254
138	0x3d1deb78	0.03855464
139	0x39a7a2ab	0.0003197392
140	0xbd6bb3ad	-0.0575444
141	0xbcd784e3	-0.026308483
142	0xbd17ae21	-0.037031297
143	0x3cb8dd18	0.022566363
144	0xbce6775f	-0.028133092
145	0xbd71e715	-0.059058268
146	0xbd8033ff	-0.062599175
147	0xbda90b00	-0.08254051
148	0x3baea1da	0.005329353
149	0x3d800693	0.06251254
150	0x3d8788f9	0.06617922
151	0xbcf70a0b	-0.030156156
152	0xbbc26b9b	-0.0059332377
153	0x3d812529	0.06305916
154	0x3d528392	0.051395006
155	0x3c926e7f	0.017874954
156	0x3c075a3c	0.00826126
157	0xbd304863	-0.043037783
158	0xbd0d6a14	-0.034524992
159	0xbc49fbe0	-0.012328118
160	0x3d009013	0.0313874
161	0x3c815d45	0.015791545
162	0x3d31f7c1	0.043449167
163	0x3ccd9d35	0.025099376
164	0xbd5377d0	-0.051627934
165	0x3db6955a	0.08915205
166	0x3d937bfb	0.07201382
167	0xbd52f6ce	-0.051504903
168	0x3c497cf7	0.01229786
169	0xbcd023bc	-0.025407664
170	0xbd5dc1bd	-0.05413984
171	0xbcbfdf69	-0.02342196
172	0x3cd999af	0.02656254
173	0x3d79a7be	0.060950987
174	0x3d8ffb2b	0.07030328
175	0xbc5d8260	-0.013519853
176	0xbdb2942a	-0.08719666
177	0xbd8dc4d0	-0.06922305
178	0x3da79ef8	0.08184618
179	0xbd012e01	-0.031538013
180	0xbcd80aad	-0.026372278
181	0xbd847c11	-0.06468976
182	0xbda865ef	-0.08222567
183	0xbdbce555	-0.09223429
184	0x3da8a7b1	0.082351096
185	0x3cc6dd00	0.024275303
186	0x3c0fb622	0.008771451
187	0x3db21cc3	0.08696892
188	0x3d63e2ed	0.055636335
189	0xbd2ac304	-0.041689888
190	0x3ce42231	0.027848335
191	0x3c19b089	0.009380468
192	0xbd4a2a91	-0.049357
193	0xbbd07cc8	-0.0063625313
194	0x3d99ffa9	0.075194664
195	0x3cc8772a	0.024470884
196	0xbdc7b4f8	-0.09751314
197	0x3c69b3fb	0.014264102
198	0xbd44d1cd	-0.048051644
199	0x3cd2ecc1	0.025747659
200	0xbcb21abe	-0.021741267
201	0x3d4523eb	0.048129957
202	0xbbce83e1	-0.0063023423
203	0x3d8c11f1	0.068393596
204	0xbc994c16	-0.018713038
205	0x3d2221a3	0.03958286
206	0x3cfb35ae	0.030665245
207	0x3d482c40	0.048870325
208	0x3cdb0d43	0.026739722
209	0x3c846afe	0.0161643
210	0x3b5fb012	0.0034132046
211	0xbcfd75c2	-0.03093994
212	0x3da39f8e	0.07989417
213	0xbce6b4d3	-0.028162396
214	0x3db563c5	0.0885692
215	0xbcef38c2	-0.029201869
216	0x3d4e8512	0.050419874
217	0x3d3a68ee	0.045510225
218	0xbd759abb	-0.059962016
219	0xbcb93290	-0.022607118
220	0xbc383b44	-0.011244599
221	0xbdb5c7f9	-0.088760324
222	0xbc9a8d27	-0.018866135
223	0x3ce25e94	0.027632989
224	0xb93253b9	-0.00017006592
225	0xbcc98a80	-0.024602175
226	0xbd1c3537	-0.038136687
227	0x3d83bf0f	0.06432926
228	0xbcd68cf8	-0.026190266
229	0x3d8661f7	0.06561654
230	0xbce7cec3	-0.028296834
231	0x3d8b4027	0.067993455
232	0x3d39fa59	0.045404766
233	0x3d0d1a37	0.03444883
234	0xbc99d51e	-0.01877838
235	0xbd9b4cd6	-0.07583015
236	0x3d955608	0.072918
237	0xbcc60b72	-0.02417538
238	0x3d6f1433	0.058368873
239	0xbd5a14b3	-0.053242397
240	0x3d8ab476	0.067727014
241	0x3d712018	0.058868498
242	0xbd37188e	-0.04470115
243	0xbd9aa41f	-0.07550835
244	0xbd469a81	-0.04848719
245	0xbd71cd9f	-0.059033986
246	0xbba2cf30	-0.0049685463
247	0xbd5e7142	-0.05430723
248	0x3d047766	0.03234043
249	0xbca0e0cc	-0.019638442
250	0xbd91caa9	-0.071187325
251	0xbd969791	-0.07353128
252	0xbcfb1fe1	-0.03065485
253	0x3dadbca9	0.0848325
254	0x3b8a2166	0.004215407
255	0xbd36dfae	-0.04464691

lstm.bias_ih_l0 f4 [512]
0	0x3dc2ce65	0.09512023
1	0xbd76d123	-0.060258042
2	0xbc26ffe8	-0.010192849
3	0xbcf03db2	-0.029326294
4	0x3ca1bf1f	0.019744454
5	0x3d842e76	0.06454174
6	0xbd090f28	-0.03346172
7	0x3daddb6f	0.08489119
8	0xbc9152fc	-0.017739765
9	0x3c91f9b2	0.01781926
10	0xbd15db1c	-0.036585912
11	0xbd323dbc	-0.043515906
12	0x3c8e811d	0.01739555
13	0xbd4b1d9a	-0.049588777
14	0x3d70d00e	0.058792166
15	0x3cad92ce	0.021188166
16	0x3b943a26	0.0045235334
17	0xbcd6006a	-0.026123244
18	0xbd97893a	-0.07399221
19	0xbda560ca	-0.08075102
20	0xbd6bf5a8	-0.057607323
21	0xbd9dde18	-0.07708377
22	0xbd1cc828	-0.03827682
23	0xbc270a1f	-0.010195284
24	0xbd7c4618	-0.061590284
25	0xbd3ca804	-0.04605867
26	0x3d716fbf	0.05894446
27	0xbcef1c7a	-0.029188383
28	0xbd17720b	-0.036973994
29	0x3d5aea66	0.053446196
30	0x3cd6977e	0.026195284
31	0xbc708981	-0.014681221
32	0x3d06b2af	0.03288525
33	0x3d86e1e7	0.06586056
34	0xbd68ec35	-0.05686589
35	0x3d17b74f	0.03704005
36	0xbd32eeeb	-0.04368488
37	0x3b944811	0.0045251925
38	0xbdb18147	-0.08667236
39	0xbd9b83ad	-0.075934745
40	0x3db091cb	0.08621558
41	0x3d78e651	0.06076652
42	0xbd76afd9	-0.060226295
43	0xbcad4911	-0.021153005
44	0x3d4ff551	0.05077106
45	0xbd39289e	-0.04520475
46	0x3b76dbb7	0.0037667581
47	0xbd9ba772	-0.07600297
48	0x3d1bf5ed	0.03807633
49	0x3d8ec1ed	0.06970582
50	0xbcf25969	-0.02958365
51	0x3dadd40f	0.084877126
52	0xbd4a9265	-0.04945602
53	0xbd1b6be0	-0.037944674
54	0xbc17077c	-0.009218093
55	0xbd2d01a7	-0.042237904
56	0xbd24deea	-0.04025165
57	0x3d4a0b71	0.049327318
58	0xbd238916	-0.039925657
59	0x3cb9a3d1	0.022661122
60	0x3cea7796	0.028621476
61	0xbbbc81bb	-0.0057527698
62	0x3c8c2d35	0.0171114
63	0x3d2f3e30	0.042783916
64	0x3cfa4324	0.030549593
65	0x3d98a8a1	0.074540384
66	0xbd41eb23	-0.047343384
67	0xbdb268db	-0.08711406
68	0x3d5d2441	0.053989653
69	0xbd2cfb13	-0.04223163
70	0x3d7e4b78	0.06208369
71	0x3d84f456	0.06491916
72	0xbd9c3d2f	-0.07628857
73	0xbd87f62a	-0.06638749
74	0xbdb30d95	-0.08742825
75	0x3c466fcb	0.012111614
76	0xbd3dd8f9	-0.0463495
77	0x3d845e87	0.06463342
78	0x3d941902	0.07231332
79	0xba3668a9	-0.00069583446
80	0xbcaed91c	-0.02134376
81	0xbc93d86c	-0.018047534
82	0xbc919d3e	-0.017775174
83	0xbd0efe7a	-0.034910657
84	0xbd665e01	-0.056241993
85	0x3d00c6cd	0.03143959
86	0x3d899bbb	0.06719156
87	0xbda8da51	-0.082447655
88	0x3c7923cc	0.015206289
89	0xbcbfebb6	-0.023427825
90	0xbd4a3f1f	-0.049376603
91	0xbd3e7eb2	-0.046507545
92	0xbcd060dc	-0.025436811
93	0xbd76b2eb	-0.060229223
94	0xbd1a9ede	-0.037749164
95	0x3da56994	0.08076778
96	0xbbbb37a7	-0.0057134214
97	0x3d874fc6	0.066070125
98	0x3c3ed1cb	0.011646698
99	0x3d9ef4b1	0.07761515
100	0x3d8922fb	0.06696125
101	0x3c3043ac	0.010758322
102	0xbda7c2a7	-0.08191424
103	0x3ce66ca4	0.028127976
104	0xbd2fbdbe	-0.04290556
105	0xbd7ce98d	-0.06174617
106	0xbc0b82a1	-0.008515031
107	0x3d8d8c02	0.0691147
108	0x3d59eb40	0.053202868
109	0xbc161516	-0.009160301
110	0xbda82247	-0.08209663
111	0x3bc1ad40	0.0059105456
112	0xbd37a1ed	-0.04483216
113	0xbd193c7e	-0.037411205
114	0x3d089e2b	0.033353966
115	0xbb8c7ca0	-0.0042873174
116	0xbcd55b1f	-0.026044426
117	0x3d381232	0.044939227
118	0xbd68e4ae	-0.05685871
119	0xbda1ee32	-0.0790676
120	0x3cdfdd78	0.027327284
121	0x3cecb8b0	0.02889666
122	0x3cc2cd5a	0.02377956
123	0xbcc2cc63	-0.0237791
124	0x3db4977a	0.08817954
125	0xbd284af5	-0.04108711
126	0x3dc1ea5a	0.09468527
127	0xbd23d4cb	-0.039997857
128	0xbcaa0de9	-0.020758586
129	0x3d52e9d9	0.051492546
130	0xbca51494	-0.020151414
131	0xbcca62a5	-0.02470524
132	0xbd878e55	-0.066189446
133	0x3db21ee3	0.086972974
134	0x3c279df2	0.010230528
135	0x3d0908fc	0.033455834
136	0xbc99776c	-0.018733703
137	0xbd07055d	-0.0329641
138	0xbdb69984	-0.089159995
139	0xbd97a1c7	-0.074039035
140	0xbda8ac51	-0.08235992
141	0x3da1fb71	0.07909287
142	0xbcfac3e3	-0.030610984
143	0xbcfa08db	-0.0305218
144	0x3d141578	0.036153287
145	0x3d5088a3	0.050911557
146	0x3c32cdf8	0.010913365
147	0x3c2368f0	0.0099737495
148	0x3c888a71	0.016667577
149	0xbd8df41d	-0.069313265
150	0x3c8eb23b	0.017418971
151	0x3d5ce229	0.05392662
152	0xbd745fc7	-0.059661653
153	0xbd882ad0	-0.06648791
154	0x3d78969f	0.06069052
155	0xbd3a565f	-0.045492526
156	0xbd51b316	-0.05119618
157	0xbd6161fc	-0.055025086
158	0x3dafe659	0.08588857
159	0xbd9aef66	-0.07565193
160	0x3d7f0565	0.062261004
161	0xbd994a83	-0.07484915
162	0xbd9ed7b0	-0.07755983
163	0x3bf1aec4	0.00737557
164	0x3c5097b7	0.012731484
165	0x3c9d1a0d	0.019177461
166	0xbc8be8c6	-0.017078768
167	0x3d1ac62a	0.03778664
168	0xbd85de3b	-0.06536528
169	0x3ce5ea7d	0.028065914
170	0xbd019ba8	-0.031642586
171	0x3ddad2c3	0.10684731
172	0xbd7ce353	-0.06174023
173	0x3d4859db	0.048913818
174	0xbd049c66	-0.032375716
175	0xbda34b8f	-0.07973396
176	0x3c8a09d2	0.016850386
177	0x3d94c3b2	0.072638884
178	0xbc37d3f7	-0.01121997
179	0x3c087fb0	0.008331224
180	0xbce99804	-0.02851487
181	0x3d99ccf7	0.07509797
182	0x3d7d0da3	0.061780583
183	0xbce40f44	-0.02783931
184	0xbc2699a3	-0.010168466
185	0xbd885164	-0.06656149
186	0xbd7490fb	-0.059708577
187	0xbb8691e0	-0.004106745
188	0x3d3809d2	0.04493124
189	0x3cbdc358	0.023164436
190	0xbd142960	-0.03617227
191	0xbd7b2f77	-0.061324563
192	0x3c29f8cc	0.010374259
193	0x3d5f6c49	0.05454663
194	0x3d50342f	0.050831016
195	0x3d4cb68f	0.04997879
196	0x3d131cf4	0.035916284
197	0x3c77760f	0.015103831
198	0xbd5bbe3b	-0.053648215
199	0x3d9da2e6	0.07697086
200	0x3c294273	0.010330784
201	0x3da5be07	0.080928855
202	0xbc850298	-0.016236588
203	0xbd0329bd	-0.032022227
204	0x3d93e921	0.072222
205	0xbd14a293	-0.036287855
206	0x3c05ff36	0.008178523
207	0x3d19bb99	0.037532423
208	0xbd95577a	-0.072920755
209	0xbd04fa7f	-0.032465454
210	0x3d73268c	0.059362933
211	0xbd8d9a0b	-0.06914147
212	0xbd79eb21	-0.061015252
213	0x3c17e48d	0.009270799
214	0x3ce6efb0	0.028190464
215	0x3c175e33	0.009238767
216	0xbb89e081	-0.004207671
217	0x3ab3299e	0.0013669019
218	0xbd5b226e	-0.05349963
219	0x3d357c46	0.04430797
220	0xbd747791	-0.05968434
221	0x3dabf6ae	0.0839666
222	0x3c4e513b	0.012592609
223	0xbd5556a1	-0.05208457
224	0x3cc66e20	0.024222434
225	0xbd232619	-0.039831255
226	0x3ca7dd23	0.020491188
227	0xbd891313	-0.06693091
228	0x3d8fd3ae	0.070227966
229	0xbd8d3cba	-0.06896348
230	0xbb4394a2	-0.002984323
231	0x3db4136e	0.087927684
232	0xbdbdfdec	-0.092769474
233	0xbd922cac	-0.07137427
234	0x3d66b0d6	0.056320988
235	0x3c0013ca	0.007817218
236	0x3c9ea34d	0.019364977
237	0xbd6306e1	-0.055426482
238	0x3c155b46	0.009116
239	0xbc8bda8e	-0.017071988
240	0x3d5f1e23	0.0544721
241	0x3d9293cb	0.071570955
242	0xbdae6427	-0.08515196
243	0xbb53d0f1	-0.0032320584
244	0x3bf04b2b	0.0073331795
245	0x3d1dad8a	0.038495578
246	0xbd57c3a8	-0.052676827
247	0xbb08f2f8	-0.0020896774
248	0xbd88a876	-0.066727564
249	0xbd8efd63	-0.069819234
250	0x3d6b2659	0.057409618
251	0xbd0486bd	-0.03235506
252	0x3d96352f	0.07334363
253	0xbd49988f	-0.049217757
254	0xbd9225c0	-0.071361065
255	0xbd4601c5	-0.04834153

lstm.bias_hh_l0 f4 [512]
0	0x3d088772	0.033332296
1	0x3cf32670	0.029681414
2	0xbd7a1f40	-0.06106496
3	0x3d843f19	0.064573474
4	0x3b028ec1	0.0019921514
5	0xbcd243a9	-0.025667029
6	0xbd10fc96	-0.035397135
7	0x3d582c00	0.052776337
8	0x3c7ed979	0.015554779
9	0xbc93d840	-0.018047452
10	0xbd9cd82a	-0.076584175
11	0x3d4c9b2f	0.049952682
12	0xbda10fa3	-0.078643106
13	0x3d8f8b47	0.07008987
14	0xbbfbd399	-0.0076851365
15	0x3c2d5b37	0.010580829
16	0xbd1ae1cb	-0.03781299
17	0xbd02f79e	-0.031974427
18	0x3b6ed6bf	0.0036443917
19	0xbd88b805	-0.06675724
20	0x3bed9b98	0.0072512142
21	0x3c382c3c	0.011241015
22	0xbd3d91d8	-0.046281666
23	0xbd1375be	-0.03600096
24	0x3dbc7d72	0.09203614
25	0xbd416b9f	-0.047221776
26	0xbcd84190	-0.02639845
27	0xbd3cc654	-0.046087578
28	0xbd776341	-0.06039739
29	0xbd914c92	-0.07094683
30	0x3da21c5c	0.07915565
31	0xbd8d947e	-0.06913088
32	0x3cf655ac	0.030070148
33	0x3d118c79	0.035534356
34	0x3d4dca4d	0.050241757
35	0xbd8aef64	-0.067839414
36	0x3d24081b	0.040046792
37	0x3d8affdf	0.06787085
38	0x3d126dbf	0.035749193
39	0xbd7ee92f	-0.0622341
40	0x3cd14563	0.025545781
41	0xbcf585c5	-0.029971013
42	0xbbea91c2	-0.007158489
43	0xbd79507d	-0.060867775
44	0xbd7fcca8	-0.062451035
45	0xbd5d71a9	-0.054063473
46	0xbd3b0f27	-0.045668747
47	0x3c4ff92e	0.012693686
48	0x3c91f611	0.017817529
49	0x3d96c0ab	0.07360967
50	0x39366b53	0.00017396854
51	0xbaabee05	-0.00131172
52	0xbc74108b	-0.014896522
53	0x3c576e55	0.013148864
54	0x3bc3a543	0.0059706285
55	0x3daa3d5d	0.08312485
56	0x3ac92433	0.0015345871
57	0x3dbcd71b	0.092207156
58	0x3d2b8426	0.041874073
59	0xbce492bd	-0.027902002
60	0x3ca2aa9a	0.01985674
61	0xbdb2c63f	-0.08729219
62	0x3c10b29a	0.008831644
63	0xbb92f31a	-0.0044845464
64	0x3d3a5e86	0.0455003
65	0xbd88fd9f	-0.066889994
66	0x3d597d62	0.05309809
67	0x3d45ba70	0.048273504
68	0xbd82e950	-0.06392157
69	0xbd0f1d4f	-0.03494006
70	0x3d9f03c5	0.07764391
71	0x3bc08ce1	0.005876169
72	0x3ccd350f	0.025049714
73	0x3aee728e	0.0018192099
74	0xbcfd9753	-0.030955946
75	0xbd34d051	-0.04414398
76	0x3d24016a	0.04004041
77	0xbd072e5c	-0.033003196
78	0xbb9d18a2	-0.004794196
79	0x3dad9c28	0.0847705
80	0x3c549eba	0.0129772965
81	0xbd211ee2	-0.039336093
82	0x3c8a1dbe	0.016859885
83	0x3c81dd1a	0.0158525
84	0x3d9129a5	0.07088021
85	0x3ba17af4	0.004927987
86	0x3dbbbd34	0.09166947
87	0x3d981e75	0.07427684
88	0xbbd335ab	-0.0064456067
89	0x3c2020dd	0.00977346
90	0x3d918b06	0.07106595
91	0x3bd9870a	0.0066384124
92	0xbc91c034	-0.017791845
93	0x3d1fee0a	0.03904537
94	0xbcd6ff50	-0.02624479
95	0x3d02bd2b	0.031918686
96	0x3c6db581	0.014508606
97	0x3d4979aa	0.049188294
98	0x3ca59495	0.020212451
99	0x3d73e949	0.05954865
100	0x3d1ebb65	0.038752932
101	0xbd85efec	-0.06539902
102	0xbda852d9	-0.08218927
103	0xbd8659bb	-0.065600835
104	0x3db54617	0.08851259
105	0x3d207b26	0.039179944
106	0xbceabc80	-0.028654337
107	0x3be6e153	0.0070459037
108	0x3dc7ab1c	0.097494334
109	0x3ce3a92c	0.027790628
110	0xbb140416	-0.0022585443
111	0xbd622212	-0.055208273
112	0xbd4c98c7	-0.049950387
113	0x3d2c910f	0.042130526
114	0xbc66697f	-0.014063238
115	0xbb83f670	-0.0040271804
116	0x3cccda5e	0.02500647
117	0xbd6d7574	-0.05797334
118	0x3d51c5a6	0.051213883
119	0x3d3a0768	0.04541722
120	0x3c9ee3ec	0.019395791
121	0x3c369179	0.011143082
122	0x3d99179d	0.07475207
123	0x3d3b2402	0.045688637
124	0xbc0985b6	-0.008393696
125	0x3d331b75	0.043727357
126	0xbd2bc90a	-0.041939773
127	0x3d9d63f5	0.07685081
128	0xbca0ca19	-0.019627618
129	0x3d498105	0.04919531
130	0x3d8db56e	0.069193706
131	0x3d706031	0.058685485
132	0xbce685f8	-0.028140053
133	0xbdab4132	-0.083620444
134	0x3d99b572	0.07505311
135	0x3d14d2e0	0.03633392
136	0xbda4da78	-0.08049482
137	0xbc7c0b86	-0.015383607
138	0xbc928b88	-0.0178888
139	0xbcfa67f9	-0.030567156
140	0xbc34be95	-0.011031766
141	0x3b1a5b59	0.0023552983
142	0xbd379f6b	-0.044829767
143	0x3d47fef9	0.048827145
144	0xbda54f32	-0.08071746
145	0xbd614c42	-0.055004366
146	0x3ce48314	0.027894534
147	0xbd5012ef	-0.050799306
148	0xbd5f6b36	-0.054545604
149	0xbd57dbef	-0.05269998
150	0x3c4cb5d0	0.012494519
151	0x3c6dc8bb	0.01451319
152	0xbdb85bed	-0.090019085
153	0xbd1cf7ed	-0.038322378
154	0xbd847e60	-0.064694166
155	0x3d1af6e5	0.037833113
156	0xbc490f18	-0.012271665
157	0xbcdc09c3	-0.026860124
158	0xbd15800a	-0.03649906
159	0x3d30545f	0.043049213
160	0xbd884ac5	-0.06654886
161	0x3ca60882	0.020267729
162	0xbd1555b3	-0.036458682
163	0x3d403cc1	0.04693294
164	0xbd8abf03	-0.06774714
165	0xbd877f5a	-0.06616087
166	0x3b0bff0e	0.0021361741
167	0x3d6157b4	0.05501528
168	0xbccf9a28	-0.025342062
169	0xbd2137f1	-0.03935999
170	0x3c8ec979	0.017430054
171	0xbbcf1fb3	-0.0063209175
172	0xbc055e9d	-0.008140233
173	0x3d6de393	0.05807836
174	0x3d178234	0.036989406
175	0xbd0bcb72	-0.034129567
176	0xbc0f613c	-0.00875121
177	0xbd69dc9f	-0.057095166
178	0xba29d7e6	-0.000647901
179	0xbda14d9a	-0.078761294
180	0xbd3c7b1a	-0.046015836
181	0xbd2f5ff2	-0.04281611
182	0xbd269d8c	-0.040677592
183	0xbd9f7157	-0.0778529
184	0xbd242dc2	-0.0400827
185	0xbd936111	-0.07196248
186	0x3cf68244	0.030091412
187	0xbbde7a60	-0.0067894906
188	0xbcd3ab45	-0.025838504
189	0x3d7019ae	0.05861824
190	0x3d28f477	0.041248765
191	0xbd8c50e8	-0.06851369
192	0xbd2a3f33	-0.041564178
193	0xbd816cb5	-0.06319562
194	0xbc9def8a	-0.01927926
195	0xbd26f41c	-0.040760145
196	0x3c7ce1fd	0.015434739
197	0x3d90b728	0.07066184
198	0x3db24736	0.08704989
199	0x3d98de20	0.07464242
200	0x3c5fd025	0.013660465
201	0xbda70ae6	-0.081563756
202	0x3ac6ad40	0.0015157834
203	0x3d508cbb	0.05091546
204	0x3c59a30a	0.0132835
205	0x3d8d9fa3	0.06915214
206	0x3dbd1444	0.09232381
207	0x3cf98c81	0.030462505
208	0x3da270c7	0.07931667
209	0x3d39f7d2	0.045402355
210	0x3d33cf20	0.0438987
211	0x3d550c69	0.05201379
212	0x3cadde4f	0.021224169
213	0xbcd77cf8	-0.026304707
214	0xbc42345b	-0.011853303
215	0xbd141def	-0.03616136
216	0xbc422e5c	-0.011851873
217	0xbc8b4e4f	-0.017005114
218	0x3d0d2125	0.034455437
219	0x3db79735	0.08964387
220	0x3d0d2de1	0.03446758
221	0x3d920ddc	0.0713155
222	0xbd72093c	-0.059090838
223	0xbc93d1d3	-0.018044388
224	0xbd4d18ed	-0.0500726
225	0x3d72876f	0.05921119
226	0xbc9771e5	-0.018486926
227	0xbd4cb79c	-0.04997979
228	0x3d09493a	0.0335171
229	0x3d81b3f9	0.06333155
230	0x3b93cb82	0.004510344
231	0x3da46b1a	0.080282405
232	0x3c933076	0.017967444
233	0xbd8aaef5	-0.06771652
234	0xbda6d3ec	-0.0814589
235	0x3d2ec860	0.04267156
236	0x3d5aed94	0.05344923
237	0x3c8d5e78	0.01725696
238	0x3dc93738	0.09824985
239	0xbc71d6dc	-0.014760699
240	0xbdb6ca94	-0.089253575
241	0xbd7c25fb	-0.06155966
242	0xbd66a108	-0.056305915
243	0xbd354b57	-0.044261303
244	0xbc3d4304	-0.011551622
245	0x3d15b146	0.036546014
246	0x3d796382	0.060885914
247	0xbda77929	-0.08177406
248	0x3cf4aa2f	0.029866306
249	0xbd129f36	-0.035796367
250	0xbd7fb8c3	-0.062432062
251	0x3bd342f8	0.0064471923
252	0x3d416353	0.047213864
253	0xbd84231e	-0.064520106
254	0x3d88bbe9	0.06676466
255	0x3cb7ec9b	0.02245169

fc.weight f4 [3, 128]
0	0x3d85e620	0.065380335
1	0xbca71f0b	-0.020400545
2	0xbd136297	-0.035982694
3	0xbd4e32db	-0.05034147
4	0x3a057725	0.0005091301
5	0xbc96c03c	-0.018402211
6	0xbdb68548	-0.0891214
7	0x3d676d13	0.056500506
8	0xbd8658b7	-0.0655989
9	0xbd993661	-0.07481075
10	0xbd7e803a	-0.062134005
11	0x3d002754	0.031287506
12	0xbbcfde51	-0.006343641
13	0xbd8604ac	-0.0654386
14	0x3bca394c	0.006171381
15	0xbc369463	-0.011143777
16	0xbcc418e7	-0.023937656
17	0x3d626dcf	0.055280503
18	0xbd533f4e	-0.051574044
19	0x3dbbbf45	0.09167341
20	0xbd706915	-0.058693964
21	0x3de61a35	0.11235467
22	0xbda2fad1	-0.07957996
23	0xbdc45940	-0.095873356
24	0xbda2c80d	-0.07948313
25	0x3d46a664	0.048498526
26	0x3d641bee	0.0556907
27	0xbc26929d	-0.010166791
28	0xbc42c608	-0.011888035
29	0x3bea3b74	0.0071482006
30	0xbd9443c6	-0.07239489
31	0x3b93295a	0.0044910135
32	0xbdeaf802	-0.11473085
33	0xbda522de	-0.08063291
34	0xbde87238	-0.113499105
35	0xbdb3bef7	-0.08776658
36	0xbdc63d0a	-0.09679611
37	0x3d90bdec	0.07067475
38	0x3d204280	0.03912592
39	0x3a1db28c	0.000601568
40	0xbd468cd6	-0.048474155
41	0x3d628721	0.05530465
42	0xbd262685	-0.04056408
43	0x3d40d728	0.04708019
44	0xbd5d74a8	-0.05406633
45	0x3dbeb12a	0.09311135
46	0x3d94133a	0.0723023
47	0xbd78a469	-0.06070367
48	0xbdb7b93e	-0.08970879
49	0x3da20d08	0.07912642
50	0x3de45621	0.1114924
51	0xbb6a27d1	-0.0035729299
52	0x3d080654	0.03320916
53	0xbd21f4dd	-0.03954016
54	0x3be88add	0.007096632
55	0xbcfadb55	-0.030622164
56	0x3d0e81ec	0.034791872
57	0xbd7a6078	-0.061127156
58	0xbdf857ce	-0.121261224
59	0xbd352b3c	-0.044230685
60	0xbc1db9a8	-0.009626783
61	0xbd457b82	-0.04821349
62	0xbde9dba9	-0.1141885
63	0x3d0b2d66	0.033978842
64	0x3da7e9b3	0.081988715
65	0xbd112095	-0.035431463
66	0x3d18ab7d	0.03727292
67	0xbcbcb827	-0.02303703
68	0xbc8194fa	-0.015818108
69	0x3caf9307	0.021432413
70	0xbd2f9179	-0.042863343
71	0x3da3724b	0.07980784
72	0x3db8e060	0.09027171
73	0x3c11a880	0.008890271
74	0x3c0deed2	0.008662896
75	0x3df529b1	0.11970843
76	0xbc850cf5	-0.01624153
77	0x3d99a243	0.07501652
78	0xbd37aad8	-0.044840664
79	0x3dda12c1	0.10648108
80	0xbda20998	-0.07911986
81	0xbd4cf55e	-0.050038688
82	0x3d6d81a1	0.057984952
83	0x3dbf2b19	0.09334392
84	0x3e011cc0	0.12608624
85	0x3d06b9b5	0.032891948
86	0x3c796d18	0.015223764
87	0xbc94a91b	-0.018147042
88	0xbd8edfac	-0.06976256
89	0xbdce9ad3	-0.10088124
90	0x3cac119b	0.021004489
91	0x3d5e535a	0.05427871
92	0xbd801cac	-0.06255469
93	0xbd130ce7	-0.035900977
94	0x3d90f782	0.07078458
95	0x3df30e03	0.11867907
96	0x3da387d9	0.07984895
97	0x3da8113a	0.08206411
98	0x3d55b6fa	0.052176453
99	0xbc4111f9	-0.01178407
100	0x3c734ba8	0.014849581
101	0xbd2c527b	-0.042070847
102	0x3dc9442a	0.098274544
103	0xbde2cf74	-0.11074725
104	0x3dde4db8	0.108546674
105	0xbdbea74a	-0.093092516
106	0x3d4876ec	0.048941538
107	0xbd6d9304	-0.058001533
108	0x3dff6adf	0.12471556
109	0xbd8e9956	-0.0696284
110	0xbdc629a7	-0.09675913
111	0x3d8e3295	0.069432415
112	0x3bc9a6f3	0.006153935
113	0x3da02a17	0.07820528
114	0x3d6a2a34	0.057169154
115	0x3d8ca754	0.06867853
116	0x3d315288	0.0432916
117	0x3d28e062	0.041229613
118	0xbd904ce8	-0.07045919
119	0x3c1ba1dd	0.00949904
120	0x3c130a5d	0.008974639
121	0xbdaeb267	-0.08530121
122	0xbc718722	-0.014741691
123	0xbd87cf44	-0.0663133
124	0xbdac559c	-0.08414766
125	0x3dc0221b	0.09381505
126	0xbdd7f54e	-0.10544835
127	0x3daa3ee9	0.083127804
128	0xbdf7aca2	-0.12093474
129	0xbc3c28dd	-0.011484352
130	0x3d0af399	0.03392372
131	0x3d23c6ce	0.039984517
132	0xbce3402c	-0.02774056
133	0xbd9d4654	-0.0767943
134	0x3db293af	0.08719575
135	0xbd8878a7	-0.066636376
136	0xbccbdea4	-0.024886437
137	0x3de90333	0.11377563
138	0x3df1fd18	0.11815852
139	0xbde04222	-0.10950114
140	0x3d14e5b6	0.036351882
141	0xbd1ef451	-0.038807217
142	0xbdcbeefd	-0.09957693
143	0xbbb88c19	-0.0056319353
144	0x3d3bb820	0.045829892
145	0xbaa6490d	-0.0012686566
146	0x3d86211b	0.06549283
147	0x3c03482c	0.008012813
148	0xbd4d02db	-0.05005155
149	0xbd33c118	-0.04388532
150	0x3c6e77ed	0.01455496
151	0x3ddeb9bc	0.1087527
152	0x3d0e2404	0.034702316
153	0xbc44b1d3	-0.012005287
154	0x3d8727b4	0.0659937
155	0x3c5a54b3	0.013325858
156	0xbdc6e37e	-0.097113594
157	0xbda1d081	-0.07901097
158	0x3dc0e6ca	0.094190195
159	0x3d12b443	0.035816442
160	0x3dbed39c	0.09317705
161	0xbdc4fb75	-0.09618274
162	0xbc3717cc	-0.011175107
163	0x3db716b9	0.08939881
164	0x3da2f5d7	0.079570465
165	0xbd975167	-0.07388573
166	0x3c863f31	0.016387554
167	0x3d9d590e	0.076830015
168	0xbd4fa36e	-0.050692968
169	0xbdcbf9fc	-0.0995979
170	0x3ded62dc	0.115911216
171	0xbdc0a94f	-0.09407293
172	0xbcb0fc79	-0.021604763
173	0xbc8c3973	-0.017117238
174	0x3d24376a	0.04009191
175	0x3d12bb2d	0.035823036
176	0x3d8a0670	0.06739509
177	0x3d527fcf	0.05139142
178	0x3dca607c	0.09881684
179	0xbd882e4d	-0.06649456
180	0xbdad1b32	-0.08452453
181	0x3d010966	0.031503104
182	0xbd2f9538	-0.042866915
183	0x3ca4182c	0.020031057
184	0x3d6efb5f	0.058345195
185	0x3d8c650b	0.0685521
186	0xbceb467b	-0.028720131
187	0xbd2ec8af	-0.042671856
188	0x3d1b70ae	0.037949257
189	0xbd2c7da6	-0.042112015
190	0x3d4ceaa3	0.050028455
191	0xbd44b6d7	-0.048025932
192	0x3d23529b	0.0398737
193	0x3d6a1a44	0.057153955
194	0xbd6b3037	-0.057419028
195	0x3bafe5fc	0.0053679924
196	0xbd72a836	-0.05924245
197	0xbcc2bfed	-0.023773158
198	0x3df05fca	0.1173702
199	0xbc149466	-0.009068584
200	0xbd76a0c8	-0.060211927
201	0x3ca1a05b	0.019729784
202	0xbda02ff3	-0.078216456
203	0xbd6832c8	-0.056689054
204	0x3d11a959	0.035561893
205	0xbc98af1b	-0.018638184
206	0xbdc5f7f9	-0.09666438
207	0x3d433348	0.047656327
208	0x3d7c43c7	0.061588075
209	0xbc6f9e03	-0.014625075
210	0x3c955133	0.018227195
211	0x3db14d7f	0.08657359
212	0x3d8ac424	0.06775692
213	0xbd7fac3d	-0.06242012
214	0x3d199faf	0.0375058
215	0x3dc56d1a	0.0963995
216	0x3b0a2401	0.002107859
217	0xbd8a1f02	-0.067441955
218	0xbc91a701	-0.017779829
219	0xbdc05b8c	-0.09392461
220	0x3d6ed39d	0.05830728
221	0xbd84e37e	-0.06488703
222	0xbd98ef24	-0.074674875
223	0xbccc7380	-0.024957418
224	0xbdbaf9e1	-0.09129692
225	0x3b9202dd	0.0044559077
226	0xbc172f37	-0.0092275655
227	0xbdc404fa	-0.09571262
228	0xbdd4d95d	-0.10393021
229	0xbd6d05f7	-0.057867017
230	0xbdc614a9	-0.09671909
231	0xbd02790b	-0.031853717
232	0x3dc0612c	0.09393534
233	0x3de13328	0.109960854
234	0x3b1cd0a7	0.0023928077
235	0x3d508d27	0.050915863
236	0xbd4e4763	-0.05036105
237	0xbdcaec3c	-0.099083394
238	0xbcb606ee	-0.022220101
239	0xbc80b452	-0.015710983
240	0xbd2a10ed	-0.041520048
241	0xbd396bc5	-0.045268793
242	0xbd36baca	-0.04461173
243	0x3dbf4de5	0.09341029
244	0xbd97c412	-0.07410444
245	0x3caa80d4	0.020813383
246	0xbd944c91	-0.072411664
247	0x3ce3c66f	0.027804581
248	0x3de364c8	0.11103207
249	0x3d91d5b8	0.07120842
250	0xbb8f06d2	-0.0043648267
251	0x3d552637	0.052038398
252	0xbda40f47	-0.080107264
253	0xbd1a4742	-0.037665613
254	0x3db75b34	0.089529425
255	0x3c4038f5	0.01173233

fc.bias f4 [3]
0	0x3d2f82e2	0.04284943
1	0xbc8c1e09	-0.017104166
2	0xbd6736b6	-0.05644866
